chatbot/pytorch-simple-chatbot/data.pth (torch, 5783 bytes, 6 tensors)

l1.weight f4 [8, 72]
-0.2265529 0.3056831 -0.45692202 0.5637398 -0.0042423178 0.3860159 0.45138925 0.8320403
0.47076946 -0.21461806 -0.2898517 -0.5298725 -0.36458963 0.67145663 0.14749886 -0.06019352
0.11746094 -0.1096146 -0.3274142 0.2606029 0.26528144 -0.0838505 0.26382625 0.84566647
-0.03406938 -0.03183871 0.19492745 -0.27843663 0.52796715 0.27151492 0.28348643 0.2783145
0.14972027 -0.0062677353 0.42300308 0.33225593 0.48173892 0.34497285 0.5750051 -0.13301453
-0.07848187 -0.39998072 0.3909812 -0.14199454 0.39038664 -0.5519623 -0.15922585 -0.15816471
-0.20365308 -0.084045336 0.011008217 -0.13491297 0.32534596 0.5464552 0.18489394 -0.05030935
0.508962 0.31796128 0.3076697 -0.20282502 0.465263 -0.73955876 -0.23475812 0.41375062
0.37348434 0.6385915 0.6129089 -0.23483533 -0.055292085 0.29118112 -0.29221508 6.609054e-05
0.5221515 0.043423943 -0.35025135 -0.23653123 -0.25034842 -0.35068926 -0.30899554 0.4578073
0.32979473 -0.12120999 -0.27283713 -0.24635965 -0.40582877 0.42753735 -0.09353391 0.47039655
0.19127877 0.6184143 -0.24520992 -0.37308437 -0.22094199 0.46204802 -0.11166975 0.60589606
0.076867044 0.12864651 -0.2349624 0.463965 0.09023957 -0.27983272 -0.25965965 0.12905125
-0.13221161 0.33600318 0.30168572 -0.55843717 0.21775602 -0.4604225 0.605223 0.45077997
0.23591125 -0.486927 -0.11364541 0.5790642 0.05417609 -0.13524428 0.39018762 -0.08692907
-0.15487891 -0.08402366 -0.061597172 -0.12816405 0.034457378 0.39318568 0.25338182 0.4820219
0.19481038 -0.3935975 -0.14861926 0.24353226 -0.19471435 0.7994698 0.42866716 -0.2081283
-0.2705402 0.51560634 0.4621206 0.34638137 0.41321564 0.32507327 -0.182461 0.23107891
0.51336616 0.22540013 0.33344972 0.4518175 -0.15857749 -0.40405455 0.41582614 0.51523626
0.2779525 0.023038894 0.19985314 0.37318188 0.21343867 0.44504976 -0.2506122 -0.12484898
-0.26750064 -0.061769474 -0.061039425 0.18083581 0.18003832 -0.11710945 -0.30402073 0.45314068
0.17844547 -0.16788362 -0.54096586 0.3248145 -0.061319984 -0.55430824 -0.47404543 -0.40555224
0.32169494 -0.22014225 -0.102252394 0.26375687 -0.08962617 0.31301728 0.030729244 -0.14729083
0.26663268 0.44477355 0.28712195 -0.20660596 0.02946069 0.6742485 -0.022814546 0.16836675
0.05469583 0.10596473 0.15548198 0.16546616 -0.06324785 0.022161858 -0.087093614 -0.13702099
0.06797839 0.2186616 0.30103514 0.19277589 0.28148732 0.84690833 0.2679809 -0.17574394
0.25090918 0.30677226 -0.38691032 -0.16089259 -0.10821565 -0.2769082 0.032401845 0.26751995
-0.16093391 -0.18403623 0.25593624 -0.3296008 0.27874285 0.4050006 -0.4550212 -0.08163942
-0.055919494 0.25489625 0.17027114 0.38529795 0.18321145 -0.11199465 0.49870977 0.5803965
0.27521226 0.5854315 0.28587353 -0.1068394 -0.11042414 0.41578034 0.4266716 -0.09628813
0.07370775 -0.42087388 0.4894892 -0.19223164 -0.28235078 0.39723784 0.56080383 0.6222851
0.14234063 0.6602298 -0.3945927 -0.28150898 -0.21065098 -0.36557412 -0.042807225 0.7594127
00000000: 7cfd 67be 7f82 9c3e aff1 e9be 4051 103f
00000010: 2403 8bbb e0a3 c53e 7e1c e73e 9800 553f
00000020: b208 f13e d6c4 5bbe 7167 94be b9a5 07bf
00000030: 7eab babe 95e4 2b3f f109 173e 7b8d 76bd
00000040: 5c8f f03d 9f7d e0bd d6a2 a7be be6d 853e
00000050: f8d2 873e d0b9 abbd 3c14 873e 997d 583f
00000060: 568c 0bbd 4f69 02bd 109b 473e 3f8f 8ebe
00000070: db28 073f 0104 8b3e 2225 913e 3d7f 8e3e
00000080: 4550 193e 9361 cdbb dc93 d83e 731d aa3e
00000090: 7ca6 f63e 48a0 b03e 8933 133f f634 08be
000000a0: 1abb a0bd 46ca ccbe b02e c83e 0467 11be
000000b0: c2e0 c73e 674d 0dbf 1a0c 23be eef5 21be
000000c0: 6f8a 50be f61f acbd cf5b 343c a026 0abe
000000d0: bf93 a63e 7de4 0b3f d654 3d3e 2d11 4ebd
000000e0: 554b 023f d2cb a23e e286 9d3e 5db1 4fbe
000000f0: f436 ee3e b953 3dbf 6f64 70be 1fd7 d33e
00000100: 5739 bf3e bc7a 233f 99e7 1c3f ac78 70be
00000110: f479 62bd b115 953e 379d 95be 179a 8a38
00000120: b9ab 053f 4edd 313d 2554 b3be 3e35 72be
00000130: ab2d 80be 8b8d b3be aa34 9ebe b865 ea3e
00000140: dbda a83e f13c f8bd 4fb1 8bbe b445 7cbe
00000150: cac8 cfbe 2de6 da3e b58e bfbd d1d7 f03e
00000160: 95de 433e 6650 1e3f 4f18 7bbe ea04 bfbe
00000170: 9e3e 62be 8f91 ec3e 1cb3 e4bd 011c 1b3f
00000180: 786c 9d3d e9bb 033e fc99 70be d28c ed3e
00000190: 86cf b83d 3c46 8fbe 1cf2 84be 0326 043e
000001a0: 7b62 07be 9c08 ac3e 8d76 9a3e bdf5 0ebf
000001b0: 6ffb 5e3e 7fbc ebbe e5ef 1a3f a2cc e63e
000001c0: b892 713e 7f4e f9be edbe e8bd 8d3d 143f
000001d0: bfe7 5d3d 7a7d 0abe acc6 c73e de07 b2bd
000001e0: 9498 1ebe 9914 acbd 514d 7cbd 703d 03be
000001f0: 2e23 0d3d a24f c93e 43bb 813e 93cb f63e
00000200: 5f7c 473e 9d85 c9be a62f 18be 8560 793e
00000210: 3363 47be 0eaa 4c3f 437a db3e 961f 55be
00000220: 3f84 8abe c7fe 033f 129b ec3e e658 b13e
00000230: 0091 d33e 0170 a63e 0ed7 3abe f39f 6c3e
00000240: f76b 033f 4bcf 663e ecb9 aa3e a054 e73e
00000250: 2362 22be 3de0 cebe 2ae7 d43e 86e6 033f
00000260: ca4f 8e3e 10bc bc3c 4da6 4c3e b211 bf3e
00000270: ab8f 5a3e 90dd e33e 3e50 80be d2b0 ffbd
00000280: d8f5 88be fd01 7dbd 7a04 7abd 062d 393e
00000290: f75b 383e 14d7 efbd 9ba8 9bbe 0e02 e83e
000002a0: 69ba 363e afe9 2bbe bd7c 0abf 164e a63e
000002b0: aa2a 7bbd 25e7 0dbf 15b6 f2be 8ba4 cfbe
000002c0: 33b5 a43e f86c 61be b469 d1bd 240b 873e
000002d0: ed8d b7bd cd43 a03e e5bb fb3c 68d3 16be
000002e0: 1484 883e 5cb9 e33e a601 933e 8390 53be
000002f0: 8c57 f13c 8d9b 2c3f 92e5 babc 5568 2c3e
00000300: bc08 603d 0904 d93d ab36 1f3e f66f 293e
00000310: 1788 81bd c98c b53c 235e b2bd 3b4f 0cbe
00000320: 4138 8b3d d4e8 5f3e 4721 9a3e 0b67 453e
00000330: 1b1f 903e fcce 583f cb34 893e 38f6 33be
00000340: 2b77 803e 4111 9d3e 1c19 c6be 07c1 24be
00000350: 2ba0 ddbd e9c6 8dbe ccb7 043d 60f8 883e
00000360: dccb 24be fe73 3cbe 130a 833e 70c1 a8be
00000370: 62b7 8e3e 3d5c cf3e 8af8 e8be 9132 a7bd
00000380: d70b 65bd c381 823e 8f5b 2e3e c645 c53e
00000390: c89b 3b3e 735d e5bd e356 ff3e dd94 143f
000003a0: 9fe8 8c3e d7de 153f 045e 923e 9ece dabd
000003b0: 0d26 e2bd 29e1 d43e b374 da3e b632 c5bd
000003c0: 17f4 963d c87c d7be 549e fa3e 5fd8 44be
000003d0: 4890 90be c262 cb3e d790 0f3f 144e 1f3f
000003e0: bec1 113e d204 293f 0e08 cabe f221 90be
000003f0: e4b4 57be 882c bbbe a156 2fbd df68 423f

l1.bias f4 [8]
0.7395164 0.6776212 0.55440587 0.6883419 0.42920667 0.27852178 0.7972252 0.57884806
00000000: f250 3d3f 9578 2d3f 8bed 0d3f 2d37 303f
00000010: fac0 db3e 689a 8e3e f316 4c3f 632f 143f

l2.weight f4 [8, 8]
0.066812396 0.69973314 -0.7193573 1.5549325 -0.8767099 0.15871057 0.38340518 1.0144081
0.01568833 -0.12746577 -0.14960407 0.13221261 0.17055437 0.15741912 -0.22775975 -0.20708458
0.03063497 1.2665243 0.96499515 -0.6399841 0.7438276 -1.1044011 -0.18665422 0.48120436
1.0934377 1.0728577 0.68107027 -0.5773887 0.742994 -0.5558921 -0.71992266 0.951168
0.23415321 -0.63336945 -0.03236665 -0.61473083 1.0299582 0.91719794 0.68912584 0.11631506
-0.22319163 -0.6858992 1.6061741 -0.210269 -0.12669522 0.9340815 0.854305 1.0921955
1.523323 0.09465418 -0.33550596 0.14827952 1.081832 -0.21049975 1.0451208 -1.0419551
-1.3354278 0.46066615 0.74708724 -0.43097296 0.3826693 0.2314357 1.0444788 0.42682156
00000000: f0d4 883d b621 333f cd27 38bf 0708 c73f
00000010: 0f70 60bf 0685 223e af4d c43e 20d8 813f
00000020: d084 803c 6386 02be cf31 19be be62 073e
00000030: cea5 2e3e 7a32 213e da39 69be fb0d 54be
00000040: 30f6 fa3c 781d a23f ec09 773f ffd5 23bf
00000050: 7c6b 3e3f 045d 8dbf 4922 3fbe 6b60 f63e
00000060: c4f5 8b3f 6753 893f 9f5a 2e3f bfcf 13bf
00000070: db34 3e3f f24e 0ebf da4c 38bf bf7f 733f
00000080: dcc5 6f3e 8024 22bf e492 04bd 005f 1dbf
00000090: acd5 833f 7ccd 6a3f 8d6a 303f 9736 ee3d
000000a0: 598c 64be 1797 2fbf 1d97 cd3f c250 57be
000000b0: 64bc 01be f71f 6f3f bcb3 5a3f 10cd 8b3f
000000c0: 40fc c23f 0dda c13d 70c7 abbe 96d6 173e
000000d0: 7979 8a3f 3f8d 57be 85c6 853f c95e 85bf
000000e0: 4cef aabf 6fdc eb3e 1c41 3f3f 7da8 dcbe
000000f0: 3bed c33e 7bfd 6c3e 7bb1 853f 5b88 da3e

l2.bias f4 [8]
0.65454674 -0.27282375 0.5385236 0.21717854 -0.28341433 0.21291317 0.76055855 -0.032526903
00000000: 6090 273f 8eaf 8bbe afdc 093f 0d64 5e3e
00000010: af1b 91be e905 5a3e f7b3 423f ee3a 05bd

l3.weight f4 [7, 8]
0.95051575 -0.20390089 -0.12979785 0.19279802 -0.78611046 -1.2705182 -1.4097486 -0.9481152
-1.1413594 -0.32396507 -0.86824954 -0.08003281 0.80146354 0.59650636 -0.016511908 -0.19844517
-0.30246216 -0.33577442 0.5268477 0.8101554 -1.4446546 -0.110979006 -0.090553276 -1.4852427
0.7084944 0.06251171 -1.0418031 -1.2605628 -0.8272167 -0.008925087 0.9293483 -0.9626001
-1.4141458 0.16534677 0.2712599 0.12875171 0.31475788 -1.6037943 0.5611767 -0.08222415
0.5163621 -0.016937882 -1.0157359 -1.0408921 0.40536562 0.6389517 -1.0960684 0.6374928
-0.72443485 0.22205427 0.5964547 -0.26469532 -0.64197046 0.15039982 -0.77915907 1.1261439
00000000: 0055 733f 65cb 50be bae9 04be d86c 453e
00000010: 893e 49bf 57a0 a2bf a472 b4bf aeb7 72bf
00000020: 1118 92bf c0de a5be 9a45 5ebf 3ee8 a3bd
00000030: b72c 4d3f a4b4 183f fb43 87bc 3635 4bbe
00000040: 52dc 9abe a0ea abbe 7edf 063f 5866 4f3f
00000050: 71ea b8bf f648 e3bd ff73 b9bd 6f1c bebf
00000060: e45f 353f 2406 803d ce59 85bf 1f5a a1bf
00000070: 79c4 53bf 873a 12bc c5e9 6d3f f66c 76bf
00000080: bb02 b5bf aa50 293e 94e2 8a3e 7dd7 033e
00000090: f227 a13e 2249 cdbf 47a9 0f3f 2365 a8bd
000000a0: 4e30 043f 50c1 8abc a203 82bf f43b 85bf
000000b0: 158c cf3e 5792 233f f84b 8cbf ba32 233f
000000c0: 9074 39bf 3262 633e 41b1 183f 2586 87be
000000d0: 2d58 24bf 6902 1a3e f876 47bf 7c25 903f

l3.bias f4 [7]
0.19437896 -0.27762294 0.15825352 0.54993165 -0.03313668 -0.27650765 -0.11694622
00000000: 470b 473e 9824 8ebe 360d 223e 52c8 0c3f
00000010: 54ba 07bd 6992 8dbe 8081 efbd
